main/utils/models/best_FCN_4_enc_model.pth (torch, 133567 bytes, 6 tensors)

encoder_lin.0.weight f4 [125, 180]
-0.09418625 -0.122624874 -0.037327494 -0.014186393 -0.08746739 -0.07358375 -0.008464672 -0.02812053
-0.10450175 0.0046876776 0.02468991 -0.0663138 -0.0111520225 0.009297351 -0.014429942 -0.026231235
0.04421556 -0.03219967 0.050265007 0.05606664 -0.084034726 0.023051513 0.02944962 0.047708005
-0.029049559 0.020882316 -0.09388798 -0.08370174 -0.07483175 -0.07131342 0.024441728 0.05525696
0.03083873 0.031571217 0.03185331 -0.017722825 0.03637406 0.050662998 -0.04542225 0.05401001
0.052970573 -0.053908248 0.01857177 0.031419113 0.061011232 0.038043845 0.031663742 -0.067969106
0.035557795 0.06861061 0.07188158 0.043590408 -0.05689312 0.030727869 -0.05315153 0.026731115
0.004963185 -0.041803263 -0.04154228 0.028062293 0.08427367 -0.008487442 -0.04756097 -0.02206635
0.045472 0.0041476646 -0.048838757 0.011642335 -0.0098550515 0.07364638 -0.017312137 -0.02226253
0.0410102 -0.03889382 -0.0054151835 0.0002165798 0.07460778 0.013472604 -0.00064339186 -0.013606998
0.042852253 0.01995093 0.0093459245 -0.051879864 -0.06077102 0.019081678 -0.047505625 0.06992661
0.02581261 0.030035581 0.022830565 -0.019384615 -0.022836907 -0.044284023 -0.11708026 -0.0058988887
-0.120273314 0.018531948 -0.09530719 0.011068948 -0.030645719 -0.03037348 -0.062160347 -0.09904776
-0.08565692 -0.062034383 0.00022020863 0.00186226 0.007681226 -0.10918691 -0.052741602 0.024633696
-0.059756115 -0.06691733 0.027917195 0.0054783626 -0.05994353 -0.061427705 -0.07943741 -0.0073364023
0.0763835 -0.014808799 0.06520228 0.115497336 0.14271633 0.14184806 0.13425276 0.061561126
0.105521895 0.13379943 0.050568912 0.13741302 0.07822885 0.0047104293 0.019034073 0.057208784
0.011565023 0.14354007 0.043479696 0.06443462 0.1475312 0.0663811 0.13894051 0.017749293
0.069818884 0.02602822 0.09818899 0.066523634 0.106534936 -0.043046698 0.008629813 0.046798103
0.069587536 0.049362384 -0.0056967298 0.08125186 -0.0061220885 0.08369069 -0.037916366 0.10428969
0.11315503 -0.018287806 0.09402308 0.055317216 0.030608505 0.0011106507 0.06636715 0.10809523
0.04377422 0.10500312 0.059110843 0.06299728 0.025343657 0.07786445 0.006324546 0.06011652
0.028078634 0.0845263 0.055262726 0.04066331 -0.31978822 -0.301247 -0.32862237 -0.24313147
-0.22339289 -0.3313673 -0.29032037 -0.34037444 -0.35689715 -0.24692962 -0.22871317 -0.2625501
-0.24581856 -0.28994274 -0.34995368 -0.33971786 -0.3616166 -0.25923118 -0.35309544 -0.35541508
-0.2402043 -0.2692625 -0.28068396 -0.3542873 -0.33392105 -0.28353962 -0.34051925 -0.3046292
-0.3010982 -0.32385623 -0.14702877 -0.19396825 -0.21404414 -0.18405043 -0.1451264 -0.13943076
-0.10593516 -0.2261755 -0.0995316 -0.10058937 -0.17783241 -0.13550718 -0.21087325 -0.11117164
-0.17529103 -0.18737562 -0.21547125 -0.20548739 -0.17688546 -0.12042761 -0.19176069 -0.123643614
-0.12256174 -0.23253162 -0.123612866 -0.14212957 -0.13196838 -0.23594923 -0.15972435 -0.12288844
-0.1940071 -0.14675261 -0.2501456 -0.17680211 -0.12731224 -0.22633931 -0.17798418 -0.17687048
-0.24176167 -0.16124351 -0.1589319 -0.21715628 -0.14550583 -0.20139845 -0.17080207 -0.14492299
00000000: b8e4 c0bd c022 fbbd b7e4 18bd 0b6e 68bc
00000010: 1a22 b3bd 14b3 96bd 68af 0abc 075d e6bc
00000020: 0305 d6bd 179b 993b 7e42 ca3c 88cf 87bd
00000030: f9b6 36bc eb53 183c 906b 6cbc e3e2 d6bc
00000040: 601b 353d cde3 03bd aee2 4d3d 22a6 653d
00000050: 661a acbd 87d6 bc3c 5440 f13c 7869 433d
00000060: 57f9 edbc 6411 ab3c 5748 c0bd d16b abbd
00000070: 6341 99bd c50c 92bd 053a c83c 1f55 623d
00000080: 81a1 fc3c d250 013d 9e78 023d 752f 91bc
00000090: f7fc 143d 0184 4f3d ae0c 3abd 9a39 5d3d
000000a0: acf7 583d e5ce 5cbd d323 983c 54b1 003d
000000b0: eae6 793d ddd3 1b3d d7b1 013d 6333 8bbd
000000c0: 0da5 113d b883 8c3d a636 933d db8b 323d
000000d0: c308 69bd 03b9 fb3c 6bb5 59bd 36fb da3c
000000e0: 37a2 a23b e639 2bbd 3d28 2abd e5e2 e53c
000000f0: ad97 ac3d e90e 0bbc 4bcf 42bd 7dc4 b4bc
00000100: d940 3a3d 22e9 873b 260b 48bd 7ebf 3e3c
00000110: 1577 21bc ead3 963d 2fd2 8dbc e95f b6bc
00000120: 50fa 273d 204f 1fbd da71 b1bb b319 6339
00000130: f7cb 983d 32bc 5c3c 4ca9 28ba e3ef 5ebc
00000140: d885 2f3d 2270 a33c a61f 193c fb7f 54bd
00000150: 08eb 78bd 2e51 9c3c 4295 42bd af35 8f3d
00000160: f774 d33c 2e0d f63c 2a07 bb3c 7ccc 9ebc
00000170: 7714 bbbc 2a63 35bd c6c7 efbd 774b c1bb
00000180: db51 f6bd 50d0 973c 6b30 c3bd 885a 353c
00000190: bb0c fbbc ced1 f8bc d99b 7ebd 8dd9 cabd
000001a0: e56c afbd c417 7ebd cee7 6639 1417 f43a
000001b0: cbb2 fb3b 639d dfbd 9407 58bd 9bcc c93c
000001c0: d4c2 74bd f40b 89bd 9ab2 e43c d683 b33b
000001d0: 5987 75bd 9e9b 7bbd 15b0 a2bd 3466 f0bb
000001e0: f46e 9c3d 9ba0 72bc c688 853d de89 ec3d
000001f0: 3b24 123e 9e40 113e 8e79 093e 8527 7c3d
00000200: dd1b d83d b802 093e 5921 4f3d 00b6 0c3e
00000210: 7336 a03d f259 9a3b 58ed 9b3c c253 6a3d
00000220: 397b 3d3c 2bfc 123e c417 323d 4cf6 833d
00000230: 6b12 173e d0f2 873d 6c46 0e3e f766 913c
00000240: 34fd 8e3d 2239 d53c 4f17 c93d 8b3d 883d
00000250: fd2e da3d bc51 30bd 0f64 0d3c 5eaf 3f3d
00000260: e983 8e3d 3630 4a3d a2ab babb 6067 a63d
00000270: cd9b c8bb 0666 ab3d 314e 1bbd d595 d53d
00000280: d3bd e73d 4fd0 95bc 2c8f c03d 4e94 623d
00000290: b0be fa3c 4193 913a 80eb 873d 0861 dd3d
000002a0: 994c 333d e00b d73d 361e 723d b804 813d
000002b0: 809d cf3c 6677 9f3d 233e cf3b bd3c 763d
000002c0: 2a05 e63c 201c ad3d 2b5b 623d 928e 263d
000002d0: 48bb a3be 0c3d 9abe 3141 a8be 75f7 78be
000002e0: 1bc1 64be faa8 a9be dfa4 94be 8f45 aebe
000002f0: 39bb b6be 1edb 7cbe c933 6abe f76c 86be
00000300: dcb7 7bbe 6073 94be 212d b3be 80ef adbe
00000310: d025 b9be f3b9 84be edc8 b4be f7f8 b5be
00000320: 1ef8 75be c6dc 89be cfb5 8fbe 2565 b5be
00000330: b3f7 aabe 1b2c 91be 8a58 aebe 5cf8 9bbe
00000340: 8b29 9abe 7cd0 a5be b68e 16be 9d9f 46be
00000350: 632e 5bbe b777 3cbe 049c 14be f0c6 0ebe
00000360: 88f4 d8bd 8d9a 67be 39d7 cbbd cd01 cebd
00000370: b319 36be 65c2 0abe 28ef 57be f5ad e3bd
00000380: 7e7f 33be 65df 3fbe 7fa4 5cbe 496b 52be
00000390: 7621 35be c0a2 f6bd ea5c 44be dd38 fdbd
000003a0: a601 fbbd c51c 6ebe be28 fdbd 6a8a 11be
000003b0: b822 07be ad9c 71be c88e 23be efac fbbd
000003c0: cca9 46be 5146 16be 1613 80be 9d0b 35be
000003d0: 245e 02be 7ec5 67be 7c41 36be 891d 35be
000003e0: 5f90 77be 051d 25be 0bbf 22be 375e 5ebe
000003f0: 7bff 14be 653b 4ebe bde6 2ebe b166 14be

encoder_lin.0.bias f4 [125]
0.023121731 0.36143684 -0.09395111 0.3707304 0.0051047937 0.27781433 -0.03657114 -0.036948185
-0.047209896 -0.0615905 0.29304284 0.025643826 0.09046147 -0.008599084 -0.035190757 0.20944296
0.004062566 0.030298393 0.25832146 0.017113548 -0.036040846 -0.06445809 -0.049437836 0.40268585
0.3183819 0.048074413 0.52244294 0.2946951 0.01107773 0.003636771 0.27006796 -0.0052257353
0.15256315 0.2919462 -0.01054347 0.0194464 0.3258777 0.017132275 -0.07532412 0.41578302
-0.0107981665 0.04090749 -0.004225328 0.35435972 -0.038739372 0.08079943 0.32129622 -0.011435563
0.24154992 -0.009893054 -0.00620045 0.0050432724 -0.047997925 0.23221564 0.25273392 0.18510394
-0.052748278 0.23056142 -0.027682573 0.054728433 -0.03954313 0.51355386 -0.011646307 -0.03848104
0.01820421 0.011025055 0.3401023 0.30659747 0.2538969 -0.053238574 0.20931764 0.03581029
0.077004224 -0.026595216 0.3679718 -0.03645219 -0.008520772 0.021714369 -0.0015411894 0.37633857
-0.033214465 0.2361278 0.20928265 0.08713297 -0.039034966 0.3973001 -0.04868345 0.1962938
-0.022834562 0.057987176 0.43775362 0.027036184 0.012227329 0.2791153 0.31455845 0.011856733
0.2862101 0.36995205 -0.037420094 0.015216184 0.09498217 0.34559938 -0.055785544 0.008908843
-0.066210315 0.38713142 -0.066610426 0.30501172 0.038203713 0.27712145 0.025644958 0.31397128
-0.06526659 0.31700736 0.3281235 -0.027056487 0.043388687 0.37002835 -0.027996967 0.004157309
-0.011311461 0.42578542 -0.038679913 -0.015421599 -0.017737065
00000000: c969 bd3c 400e b93e 7169 c0bd 60d0 bd3e
00000010: 1d46 a73b ae3d 8e3e 9fcb 15bd fb56 17bd
00000020: 2a5f 41bd 5246 7cbd b609 963e 0013 d23c
00000030: dd43 b93d 2ce3 0cbc 2f24 10bd 3778 563e
00000040: 461f 853b 5634 f83c b642 843e b631 8c3c
00000050: 919f 13bd 9a02 84bd 547f 4abd d72c ce3e
00000060: f402 a33e ade9 443d d2be 053f 47e2 963e
00000070: 5e7f 353c e556 6e3b 5946 8a3e a53c abbb
00000080: 8439 1c3e f979 953e 85be 2cbc 0f4e 9f3c
00000090: 71d9 a63e fc58 8c3c 8843 9abd 83e1 d43e
000000a0: cbea 30bc 9d8e 273d 9f74 8abb a36e b53e
000000b0: 2dad 1ebd 2c7a a53d f080 a43e 3a5c 3bbc
000000c0: dd58 773e 7a16 22bc 252d cbbb 0942 a53b
000000d0: 7999 44bd f0c9 6d3e 5766 813e e38b 3d3e
000000e0: 940e 58bd 4b18 6c3e 90c6 e2bc ec2a 603d
000000f0: faf7 21bd 4478 033f 27d0 3ebc 4c9e 1dbd
00000100: ff20 953c 6fa2 343c e321 ae3e 58fa 9c3e
00000110: c6fe 813e b110 5abd 5d57 563e d0ad 123d
00000120: 64b4 9d3d 36de d9bc cd66 bc3e e44e 15bd
00000130: b59a 0bbc 55e2 b13c bc01 caba 73af c03e
00000140: e40b 08bd 7ccb 713e 314e 563e c572 b23d
00000150: 21e3 1fbd eb6a cb3e 4c68 47bd 3e01 493e
00000160: 8c0f bbbc f683 6d3d 3e21 e03e fd7a dd3c
00000170: 2355 483c 33e8 8e3e ce0d a13e be42 423c
00000180: 218a 923e 5b6a bd3e d045 19bd 4d4d 793c
00000190: 0386 c23d 67f2 b03e 627f 64bd 65f6 113c
000001a0: 4699 87bd 1736 c63e 0c6b 88bd 7f2a 9c3e
000001b0: 7f7b 1c3d dde2 8d3e 6015 d23c d8c0 a03e
000001c0: 7daa 85bd ca4e a23e ceff a73e 91a5 ddbc
000001d0: 56b8 313d 5b74 bd3e e559 e5bc 093a 883b
000001e0: b553 39bc 8c00 da3e d46e 1ebd e0aa 7cbc
000001f0: 524d 91bc

encoder_lin.2.weight f4 [64, 125]
-0.019352807 -0.027974997 -0.055097584 0.07353954 -0.05591074 0.11953698 0.09685455 0.061504822
0.09618935 0.048388224 -0.11589011 0.124501824 -0.04068686 0.082436144 0.16880125 0.0044830395
0.02463125 0.06687413 -0.02796426 0.09685103 0.04880273 0.12532508 0.098781094 0.11959901
0.063574836 0.011600216 -0.12415857 -0.1447449 0.031824175 0.07779268 0.015924953 0.09799228
0.1536117 0.16547462 0.015093234 -0.032789234 -0.051346406 0.07140028 -0.0017670805 0.006122103
0.064268105 0.024748262 -0.0037967833 0.08058836 0.15406577 -0.09398198 -0.013198556 0.061536245
-0.06502013 0.17750381 0.030419065 -0.05339894 0.058328606 -0.015715681 -0.09504077 -0.041868664
0.15163414 0.039458673 -0.007834212 0.12560372 -0.067034714 0.02724539 0.09323243 0.050303243
0.059979178 0.18532914 -0.031415403 0.057135336 -0.051191676 0.058633294 -0.021460367 -0.01896855
0.073420875 0.064029686 0.05791168 0.11224168 -0.055366945 0.030004801 0.18864861 0.059416536
0.02339663 0.008452885 0.06754432 0.08682615 0.14289755 0.05609604 0.041655753 0.045395907
0.18231605 0.05969325 -0.0072154356 0.058075007 0.07165292 0.013446883 -0.22092497 0.09344168
-0.026602961 -0.014443426 0.18263537 -0.039196298 -0.08055419 -0.08024289 0.048301797 0.037626594
0.14279616 0.044061515 0.17527409 0.0068170177 -0.097933464 0.016940143 -0.109445885 0.16881299
0.16223294 -0.02587741 -0.20924805 0.04183546 -0.14181882 0.050221622 0.09659765 0.107998654
-0.101752706 0.083217494 0.21497989 0.16251838 0.1155736 0.105218135 0.08460718 -0.104823634
-0.018957159 0.058408722 0.1288485 0.10143841 0.0006843427 0.018646609 0.008979876 0.035263788
0.10035748 -0.06858307 0.0752598 0.07585207 -0.0577121 0.032757245 0.02515016 -0.06629055
-0.061794475 0.0664374 -0.04120573 -0.009209738 0.20813003 0.08706435 0.13176396 0.12393352
0.024069084 -0.014352048 -0.076589376 0.02222038 0.1310148 0.091193065 0.22520769 0.006878469
0.09521349 -0.052786056 -0.0008531996 -0.07547471 0.18838698 0.03772698 0.062706806 -0.02936192
0.16031453 -0.00095120596 -0.0073847417 0.17278472 0.020420378 -0.09435477 -0.039244674 -0.06536712
-0.024205264 -0.016541844 0.00023386205 -0.039268337 -0.052637342 0.119100414 0.03022697 -0.07843354
0.11251846 -0.04681851 0.26130185 -0.0066476753 -0.050524563 0.0997382 0.13029525 0.09033428
0.07483127 0.0718446 -0.031418145 0.09576794 -0.025530545 0.044439733 -0.00518151 0.15158693
0.035156153 0.06513896 -0.009987504 0.039597765 0.14334595 -0.06820116 0.10761371 0.022008985
-0.00973639 0.106931314 -0.028165095 0.050926607 0.04621959 -0.023714691 0.061331175 0.15827288
0.004111697 0.021043794 0.08204243 0.086722404 0.06724827 0.063208565 0.09466018 -0.029307134
0.10700269 -0.03431241 0.08419667 0.03676547 -0.053978827 0.04352502 0.12411006 0.0068578515
0.15417878 -0.021427793 0.1038203 0.06582754 0.1573752 -0.092895366 0.024646467 0.0343609
0.017512087 -0.022718012 0.14617352 0.04379894 -0.012512571 -0.05456269 0.12430321 -0.021025058
0.08744015 0.058878046 -0.042174898 -0.016696077 0.129441 0.091528244 -0.01491168 -0.030746283
00000000: c789 9ebc d22b e5bc 01ae 61bd e69b 963d
00000010: a902 65bd cecf f43d ae5b c63d 7bec 7b3d
00000020: ecfe c43d bb32 463d cb57 edbd d0fa fe3d
00000030: 44a7 26bd 48d4 a83d 3cda 2c3e 76e6 923b
00000040: 7ac7 c93c 4ef5 883d 4e15 e5bc d559 c63d
00000050: 5fe5 473d 3855 003e be4d ca3d 53f0 f43d
00000060: 8633 823d d50e 3e3c d946 febd 0238 14be
00000070: 115a 023d c551 9f3d 0c75 823c 2db0 c83d
00000080: 634c 1d3e 2e72 293e 9d49 773c 014e 06bd
00000090: 9c50 52bd 4f3a 923d 629d e7ba ec9b c83b
000000a0: ff9e 833d debc ca3c 74d3 78bb 830b a53d
000000b0: 6bc3 1d3e a079 c0bd c23e 58bc 6e0d 7c3d
000000c0: 4629 85bd 8fc3 353e 6731 f93c d9b8 5abd
000000d0: fae9 6e3d 2cbe 80bc bca4 c2bd 7a7e 2bbd
000000e0: fb45 1b3e 6b9f 213d 115b 00bc 439e 003e
000000f0: 7f49 89bd b931 df3c a5f0 be3d c60a 4e3d
00000100: baac 753d ecc6 3d3e 70ad 00bd be06 6a3d
00000110: 5dae 51bd 7729 703d a7cd afbc ef63 9bbc
00000120: af5d 963d ff21 833d cc34 6d3d f7de e53d
00000130: 73c8 62bd a1cc f53c 1a2d 413e c15e 733d
00000140: 4aaa bf3c f87d 0a3c ad54 8a3d e9d1 b13d
00000150: bc53 123e f6c4 653d 399f 2a3d 0ff1 393d
00000160: 0fb1 3a3e e980 743d 766f ecbb 0fe0 6d3d
00000170: c4be 923d 5150 5c3c 283a 62be 5a5e bf3d
00000180: 74ee d9bc 1fa4 6cbc c404 3b3e 4c8c 20bd
00000190: 98f9 a4bd 6256 a4bd 1bd8 453d 581e 1a3d
000001a0: 2839 123e d979 343d 0d7b 333e 4a61 df3b
000001b0: 5791 c8bd 0ec6 8a3c 2a25 e0bd 50dd 2c3e
000001c0: 6420 263e ddfc d3bc 1f45 56be a95b 2b3d
000001d0: f438 11be 30b5 4d3d fdd4 c53d 662e dd3d
000001e0: b963 d0bd ef6d aa3d b023 5c3e 386b 263e
000001f0: dab1 ec3d 9b7c d73d 8746 ad3d c6ad d6bd
00000200: 0b4c 9bbc fc3d 6f3d dcf0 033e f1be cf3d
00000210: 7665 333a c6c0 983c 5420 133c c370 103d
00000220: 3988 cd3d 4875 8cbd cf21 9a3d 5458 9b3d
00000230: 8663 6cbd 762c 063d b507 ce3c 57c3 87bd
00000240: 341c 7dbd 5510 883d 57c7 28bd 71e4 16bc
00000250: 0a20 553e cb4e b23d 22ed 063e dbd0 fd3d
00000260: 872c c53c da24 6bbc e4da 9cbd 8407 b63c
00000270: be28 063e 6ec3 ba3d d89c 663e c864 e13b
00000280: 4aff c23d 3136 58bd 42a9 5fba 7c92 9abd
00000290: 84e8 403e 9b87 1a3d 6d6c 803d 6988 f0bc
000002a0: 7e29 243e 5a5a 79ba b4fb f1bb 7aee 303e
000002b0: a348 a73c 133d c1bd 06bf 20bd 32df 85bd
000002c0: 1e4a c6bc c382 87bc de38 7539 d6d7 20bd
000002d0: 419a 57bd ebea f33d 8d9e f73c c4a1 a0bd
000002e0: 1470 e63d c4c4 3fbd 5bc9 853e bed4 d9bb
000002f0: d8f2 4ebd 8b43 cc3d 1e6c 053e 2e01 b93d
00000300: 2341 993d 4323 933d 50b0 00bd fb21 c43d
00000310: 6f25 d1bc 7006 363d a8c9 a9bb 9b39 1b3e
00000320: e6ff 0f3d 9367 853d a1a2 23bc 4431 223d
00000330: 48c9 123e 0dad 8bbd 9464 dc3d 304c b43c
00000340: 6185 1fbc cefe da3d 7cba e6bc 6b98 503d
00000350: c150 3d3d 5045 c2bc 6636 7b3d 4912 223e
00000360: 6abb 863b 0964 ac3c dd05 a83d 849b b13d
00000370: 76b9 893d 7e73 813d 32dd c13d 8415 f0bc
00000380: 3a24 db3d 2b8b 0cbd 4e6f ac3d 6497 163d
00000390: e718 5dbd 4b47 323d 6a2d fe3d d4b7 e03b
000003a0: 0be1 1d3e 5789 afbc bd9f d43d 97d0 863d
000003b0: f726 213e ed3f bebd 63e7 c93c 04be 0c3d
000003c0: 8275 8f3c 201b babc 83ae 153e 8466 333d
000003d0: 8701 4dbc 217d 5fbd ae92 fe3d be3c acbc
000003e0: d213 b33d 1b2a 713d 96bf 2cbd 36c6 88bc
000003f0: 2e8c 043e 2973 bb3d 1e50 74bc a1df fbbc

encoder_lin.2.bias f4 [64]
-0.03858812 0.20939419 -0.026702907 -0.09696122 -0.062338248 0.096572675 0.36279118 0.18059804
0.18140678 -0.06357178 0.31449595 0.1362585 0.08414052 0.33486947 0.3840017 0.0366154
0.17463446 0.037276182 0.012388089 -0.12156487 -0.087045856 0.32156926 -0.09356427 0.10626601
-0.17192139 -0.092836104 0.17646666 0.19887362 0.20260496 0.05897871 -0.049403436 -0.0031171574
0.031811833 -0.21949682 -0.005135043 0.18352827 0.23026991 0.14208081 -0.045036223 0.17007299
0.29911882 0.22215855 0.067026794 0.22339195 -0.19220054 0.05959702 0.3878193 -0.074260235
0.01541321 -0.20858979 -0.07490421 -0.13890898 -0.052786354 -0.042023957 -0.083654836 -0.1342959
-0.06878178 0.23013414 0.19920482 0.20415029 0.047411654 0.026954103 -0.0153966835 -0.061701767
00000000: 940e 1ebd 6e6b 563e 0ec0 dabc 9b93 c6bd
00000010: 6456 7fbd e5c7 c53d c4bf b93e b1ee 383e
00000020: b3c2 393e ec31 82bd 9d05 a13e 5987 0b3e
00000030: dd51 ac3d 0374 ab3e df9b c43e 08fa 153d
00000040: 60d3 323e e9ae 183d 69f7 4a3c 01f7 f8bd
00000050: 1945 b2bd baa4 a43e a09e bfbd fea1 d93d
00000060: 290c 30be db20 bebd adb3 343e 87a5 4b3e
00000070: ad77 4f3e a993 713d 425b 4abd 3949 4cbb
00000080: 204d 023d c6c3 60be dd43 a8bb d6ee 3b3e
00000090: e0cb 6b3e a27d 113e e777 38bd 9d27 2e3e
000000a0: 1a26 993e 887d 633e 5845 893d dcc0 643e
000000b0: 38d0 44be 011c 743d 4090 c63e c015 98bd
000000c0: b087 7c3c 9098 55be 6167 99bd 283e 0ebe
000000d0: 8136 58bd 5021 2cbd 3a53 abbd dd84 09be
000000e0: 76dd 8cbd 49a8 6b3e 59fc 4b3e c60c 513e
000000f0: b932 423d dace dc3c 5f42 7cbc feba 7cbd

encoder_lin.4.weight f4 [32, 64]
0.16338736 0.12583287 -0.013945578 0.25652403 0.1560697 0.18931353 -0.06964772 0.0082448935
-0.12914099 0.1191965 -0.025034226 0.15449029 0.1240743 0.011673971 -0.1268342 0.052248027
-0.05330953 0.19803783 0.013489024 0.023592776 -0.024951397 -0.21127704 0.18086232 0.021594947
0.09427911 -0.08735257 0.12638044 0.10631882 -0.1268671 0.23895572 0.17887102 0.057830516
-0.12629037 0.03250115 0.23037145 0.12952808 -0.058271468 0.11002515 0.051185235 -0.117507994
0.10502002 -0.08730635 0.05524848 0.062404722 0.049202085 0.15285762 0.08579117 -0.07782484
0.16373967 -0.06481817 -0.006897858 0.045381606 -0.083710305 -0.110794604 -0.12925693 0.10020679
0.2001572 0.18306 0.057927173 0.20200163 0.24418443 0.18905653 0.12280854 0.14369403
0.18803746 0.1801929 -0.16804329 0.13936038 -0.06942762 0.10133605 0.11648314 -0.142688
-0.071576476 -0.12036097 0.09083598 0.013895723 -0.031605206 0.024304846 -0.3491688 0.11930518
0.10309472 0.04331624 -0.10741278 -0.11453233 0.04519524 -0.08842635 0.15617639 0.14681762
0.22198495 -0.08519443 -0.047108095 0.06927738 -0.06442649 -0.053283345 -0.044368923 0.112852864
0.1451918 0.15235789 0.0449897 0.15238091 -0.123742886 0.16576923 0.15141478 0.023111543
0.18137786 0.15752724 0.056164812 -0.017397562 0.059945658 0.14528437 -0.0077550043 0.13560838
-0.11588564 0.15535772 -0.12878954 0.17205033 0.014541756 0.08863786 -0.00656299 0.20161846
0.049260873 0.146191 0.035097472 0.106300876 0.047166463 -0.04196636 -0.038941476 0.11007825
0.10054566 0.05465836 -0.09092747 0.08795215 0.005744979 0.01714961 -0.11218738 -0.006181933
0.10041335 0.0027631074 0.011058188 -0.02044569 -0.10818823 0.009718289 0.0716282 -0.030462801
0.023745064 0.04907561 -0.09382774 -0.058789477 -0.023578852 -0.03465552 -0.06319717 0.0028826743
0.008821294 -0.07609925 0.096240714 -0.10879842 -0.12160432 0.002987355 -0.046853498 -0.121901736
-0.06819664 0.035897154 -0.119886175 -0.016003892 0.033096086 0.0022080243 -0.11461736 -0.10811591
0.07369021 0.020056203 0.02851823 0.023335166 -0.008405954 -0.11915582 0.021460235 0.04184051
-0.1186427 0.04902841 0.004968524 -0.031468187 -0.032470696 0.12010564 -0.122941434 -0.057499185
-0.11750692 -0.052457802 0.0062498017 -0.11306521 0.11226667 0.05047524 0.045102492 -0.0411999
0.18712075 0.12901716 -0.20786807 0.18745022 0.119309455 0.14527807 0.07691315 0.010824543
-0.116949886 0.05807159 -0.061035212 -0.022416105 -0.01350503 0.10766987 -0.03903419 -0.00990953
-0.042082544 0.12186818 0.2132858 -0.1591785 0.094827585 -0.056141153 0.17742987 -0.121787004
-0.041904904 -0.13248222 0.19729356 0.0679622 -0.13328543 0.25408173 0.13631849 -0.030127633
-0.11656933 0.036908116 0.13302107 -0.058976896 -0.22588716 0.033238646 -0.07895134 0.08275644
-0.06843636 0.043031104 0.08110964 0.06442461 -0.12965663 0.2202998 -0.084432766 0.14245541
-0.0011258911 0.12590355 -0.13379309 0.10569554 0.1209844 -0.079646684 -0.08158923 0.20037363
0.19515866 0.10174847 0.19495529 0.064809695 0.22006068 0.06308928 0.25043696 0.13871601
00000000: 044f 273e 55da 003e fe7b 64bc 1e57 833e
00000010: bcd0 1f3e 68db 413e 77a3 8ebd 9715 073c
00000020: 893d 04be 4b1d f43d 9414 cdbc b432 1e3e
00000030: ab1a fe3d 2f44 3f3c d3e0 01be 0702 563d
00000040: 185b 5abd 6eca 4a3e 1101 5d3c a345 c13c
00000050: df66 ccbc 0259 58be f933 393e e3e7 b03c
00000060: 6815 c13d e7e5 b2bd e069 013e aebd d93d
00000070: 73e9 01be cfb0 743e f729 373e b1df 6c3d
00000080: 4352 01be ed1f 053d 7ee6 6b3e 02a3 043e
00000090: 10ae 6ebd de54 e13d 9ca7 513d 08a8 f0bd
000000a0: bc14 d73d accd b2bd 3b4c 623d 189c 7f3d
000000b0: 2088 493d b586 1c3e 48b3 af3d a162 9fbd
000000c0: 5fab 273e 64bf 84bd 6d07 e2bb 10e2 393d
000000d0: 4f70 abbd 48e8 e2bd ee5b 04be 3839 cd3d
000000e0: 02f6 4c3e 1574 3b3e 0b45 6d3d 84d9 4e3e
000000f0: 7c0b 7a3e 0998 413e 0b83 fb3d 8724 133e
00000100: e48c 403e 7d84 383e 8a13 2cbe 7db4 0e3e
00000110: 1130 8ebd 4689 cf3d b68e ee3d ce1c 12be
00000120: b096 92bd d07f f6bd 3708 ba3d e3aa 633c
00000130: 7674 01bd f51a c73c 41c6 b2be 4656 f43d
00000140: 5323 d33d 5f6c 313d 3bfb dbbd ed8f eabd
00000150: a51e 393d e018 b5bd b4ec 1f3e 5c57 163e
00000160: 0650 633e 6b7a aebd 6bf4 40bd 4de1 8d3d
00000170: 09f2 83bd a33f 5abd 30bc 35bd 671f e73d
00000180: 29ad 143e b503 1c3e 1f47 383d be09 1c3e
00000190: e96c fdbd 69bf 293e 7a0c 1b3e 6b54 bd3c
000001a0: 1ebb 393e d24e 213e 130d 663d 5585 8ebc
000001b0: 9489 753d 6dc5 143e b11d febb ecdc 0a3e
000001c0: 7355 edbd 1816 1f3e 68e1 03be f62d 303e
000001d0: 8c40 6e3c c487 b53d 5a0e d7bb 1275 4e3e
000001e0: c5c5 493d 18b3 153e 5ec2 0f3d 46b4 d93d
000001f0: 9f31 413d ebe4 2bbd 1981 1fbd b570 e13d
00000200: e2ea cd3d 72e1 5f3d 2e38 babd 4220 b43d
00000210: 6040 bc3b 577d 8c3c 7fc2 e5bd d091 cabb
00000220: 84a5 cd3d 4015 353b 672d 353c b87d a7bc
00000230: ca91 ddbd 7539 1f3c ceb1 923d 208d f9bc
00000240: 0285 c23c 8203 493d c228 c0bd 3ccd 70bd
00000250: 7028 c1bc f2f2 0dbd 856d 81bd 40eb 3c3b
00000260: 3087 103c ecd9 9bbd da19 c53d b5d1 debd
00000270: b00b f9bd 80c7 433b 74e9 3fbd 9ea7 f9bd
00000280: aeaa 8bbd e508 133d e286 f5bd 981a 83bc
00000290: c38f 073d 80b4 103b 82bc eabd e06b ddbd
000002a0: e5ea 963d e84c a43c 109f e93c 6429 bf3c
000002b0: 20b9 09bc f707 f4bd 60cd af3c f460 2b3d
000002c0: f2fa f2bd 04d2 483d 00cf a23b c9e4 00bd
000002d0: feff 04bd f2f9 f53d b8c8 fbbd 4484 6bbd
000002e0: 78a7 f0bd fedd 56bd 23cb cc3b bc8e e7bd
000002f0: 11ec e53d 20bf 4e3d 64bd 383d 3ac1 28bd
00000300: 959c 3f3e 131d 043e 5edb 54be f3f2 3f3e
00000310: 8458 f43d c6c3 143e a484 9d3d 6d59 313c
00000320: 6c83 efbd 7adc 6d3d 0f00 7abd fba1 b7bc
00000330: 3444 5dbc 0582 dc3d 51e2 1fbd 955b 22bc
00000340: bf5e 2cbd 0696 f93d 9867 5a3e b0ff 22be
00000350: f734 c23d 44f4 65bd 2db0 353e 776b f9bd
00000360: 7aa4 2bbd 6ba9 07be 5307 4a3e c42f 8b3d
00000370: fa7b 08be 0017 823e 1397 0b3e 3ace f6bc
00000380: e7bb eebd f72c 173d ad36 083e c291 71bd
00000390: f74e 67be 3f25 083d 3db1 a1bd 357c a93d
000003a0: 5d28 8cbd 6241 303d d01c a63d 0df1 833d
000003b0: b5c4 04be 4596 613e 16eb acbd d5df 113e
000003c0: a392 93ba dcec 003e 0e01 09be e776 d83d
000003d0: abc6 f73d cd1d a3bd 4118 a7bd bf2e 4d3e
000003e0: acd7 473e 8061 d03d 5ca2 473e f2ba 843d
000003f0: 9657 613e f434 813d 4639 803e 920b 0e3e

encoder_lin.4.bias f4 [32]
0.027984057 -0.004548836 -0.041249517 0.02056981 0.038538452 -0.0015142794 -0.039682448 0.18140922
-0.23321812 0.11066761 0.19888413 -0.08568089 -0.048188914 0.2435961 0.056959633 -0.098514736
0.14762129 -0.034176026 0.13634343 -0.12322846 0.33206892 0.1202187 -0.093134165 -0.0029583226
-0.0977699 0.058730822 0.24760784 0.3558969 -0.13369936 0.117603175 -0.0160513 0.25494128
00000000: d23e e53c 670e 95bb 41f5 28bd 0582 a83c
00000010: 7fda 1d3d c97a c6ba 108a 22bd 57c3 393e
00000020: bbd0 6ebe b3a5 e23d 48a8 4b3e 7679 afbd
00000030: bd61 45bd 4271 793e 814e 693d 18c2 c9bd
00000040: 092a 173e 29fc 0bbd 9d9d 0b3e 345f fcbd
00000050: f004 aa3e 3935 f63d 20bd bebd 6be0 41bb
00000060: 963b c8bd bb8f 703d e98c 7d3e 1e38 b63e
00000070: 7ce8 08be efd9 f03d 047e 83bc aa87 823e
