main/utils/models/best_FCN_4_dec_model.pth (torch, 4205 bytes, 4 tensors)

decoder_lin.0.weight f4 [16, 32]
00000000: 5587 d93a 653f 2c3e e46f 03bd 34c4 2d3e
00000010: ba1a 39be 900e 42bd 287f ec3d 2b28 113e
00000020: e2ec 6b3d 9575 b83d 482a 1dbd 501b 34bd
00000030: df8d df3d 62ea 183b 429c ea3d 1d02 d4bd
00000040: a801 09bb 7acc 67be 2f46 013e 31b9 b3bc
00000050: 28e3 09be 0952 0cbe 65be 3cbc f894 68be
00000060: 9fc9 0d3e 7fc7 6d3c 7b9a c63d 526d 9a3d
00000070: 2299 b8bd 15b8 983b a949 1bbe 583c 4cbe
00000080: edd9 06be 4f6a 27bc 1081 97bc 2be8 8bbd
00000090: a3ff 773d 7cb8 a9bd b0fa 11be 72bc 2a3d
000000a0: 8f32 143c 0172 78bc 1881 1bbc 02e4 8d3d
000000b0: 7686 ab3d 9b0b 8a3d 7875 b03c 2379 0e3e
000000c0: e5f1 083e 2a43 693d ed77 2bbd 7641 983d
000000d0: e194 10be 61e9 29be 6861 303d 150c 31be
000000e0: 91fe 093e 9fd2 c33b 0e27 bfbc e8ee a23c
000000f0: d69f 053e 4dd9 1dbd 2d0f 963d bc16 bf3d
00000100: a98e 1e3d f52d f73d db2e 71bd 199d af3c
00000110: d7f1 61be 2e2c 0b3e 328c 70bd aaaa e53d
00000120: a713 963d 22c8 ab3d 8786 3f3e 783f 493d
00000130: 59ba 16bd 5ff9 a93e 80e9 93bd 9961 2b3e
00000140: 3611 113d a725 5ebd 2f01 1fbd 1ebf 87be
00000150: b0c7 5b3e 53ea 9a3d adaa b9bd fe7b 49be
00000160: 2ce1 a73d fd33 4b3e cc4b 713e 5e09 d93e
00000170: a950 63be 518d 773e 4f29 d9bb 37a6 173e
00000180: 5269 ffbd 8815 81bd cf1a 173d f5eb babd
00000190: 5293 783e e3d0 60be 5f79 b43d ccf1 093e
000001a0: 34af 59be dafb 363e 26df 483e 19bb 04be
000001b0: c03f e1bd d74e 973a 2180 ebbd c7b6 e5bd
000001c0: f561 b83d e72d 853e 9f3f 293e df5b 1f3e
000001d0: f4d0 9d3e e89b 513e b763 573b 6ff2 21bd
000001e0: 1efd 30be a6ea 193d f4f9 c93c 8766 f83e
000001f0: ea88 c13d 72af c6bc 3385 253e 99c1 813e
00000200: ace1 063e 2ce6 883e 306b 23be c749 6a3d
00000210: 6a8e 1b3e bbdb b23d d909 963d e380 673e
00000220: 6e14 423e 83dc 283d 85ef 543e 82d2 ae3d
00000230: 6c4d 2c3d 1e71 deba 8c3d b9bc 76ee a83d
00000240: 920b c53d 38d0 f3bd 474c 613e e234 233c
00000250: cebc d4bd cff8 f2bd 4a4b 8cbe 693e 5fbe
00000260: 8bd6 d43b 395e 533e bee1 f1bd 85ae efbe
00000270: 2a23 de3d f9b9 123e 1a2d 133e 95b4 f8bc
00000280: 6da1 df3d 6e90 a6bd c9d5 903d b415 113e
00000290: 343f a03d ba36 dfbd 28ac 97be 89f6 ac3d
000002a0: 64dd b23d efe4 2fbe db94 eebc 8a5c 0abe
000002b0: 71eb 9ebd c837 67be 3fdd 8fbd 0fc4 303e
000002c0: db0d 4dbe 7dac 2abe 606d 12bc b0b0 ccbd
000002d0: e7bb e3bd f740 533e 9d25 ae3d 29d8 ec3d
000002e0: e391 9f3d 98e9 8dbe dc35 8c3d eec1 60be
000002f0: 0f47 463e 6669 80be 614f 86be caeb e53d
00000300: fb95 b2bd 9003 6abd 48e1 683d f6cf 1c3e
00000310: 7f15 0f3e e827 023e 4cd1 39be fc08 33be
00000320: afb3 163e 52c6 29be cb6a d7bd c906 033e
00000330: e936 b63d deaf 1bbe 0299 9cbb 2060 d53c
00000340: 883d b83d 6a0c ffbc 142a de3d 606f 2fbe
00000350: b65c 85be 72f5 29bb 1c31 313e 9b33 783c
00000360: 36d9 2c3e 675f d03c 327a 70bd 4b57 a33d
00000370: 4e37 d7bb 8d85 42be 1902 61be 7e47 0a3e
00000380: 7560 d7bc 752a 01b9 8d2b 183e 5ab4 78be
00000390: daa2 5d3e 8fca 64be 7a68 4f3e 17a2 03be
000003a0: b15b d43d e7ea 123e bd04 543e 9809 4dbd
000003b0: a4a7 713d 6035 84be 8eb3 3dbc ee4e df3d
000003c0: 16af 07be c7c6 073e 63bc 92bd 0171 4c3d
000003d0: 28d5 42bd 209f 8e3d 5a71 4c3c 1fe3 d83c
000003e0: 5968 373b eca1 463e 067d 18be 503f 0bbe
000003f0: 46d5 ee3d 7c3a 713d e714 4d3e d096 2d3d
0.0016596118 0.16821058 -0.03208913 0.16969377 -0.18076602 -0.04737717 0.11547691 0.14175479
0.057598956 0.09006802 -0.0383704 -0.04397136 0.10915732 0.0023333062 0.11455585 -0.103519656
-0.0020905528 -0.22636595 0.12624429 -0.021938892 -0.1346556 -0.13703169 -0.011520003 -0.22713077
0.13846444 0.014512896 0.096974336 0.075403824 -0.09013583 0.004660616 -0.15164818 -0.19944894
-0.1316907 -0.010218217 -0.018494159 -0.06831392 0.06054653 -0.08287141 -0.14255786 0.04168362
0.009045257 -0.015163899 -0.009491228 0.06928255 0.08375256 0.06740495 0.021540388 0.13913397
0.13373525 0.05694882 -0.041862417 0.07434361 -0.14119293 -0.16592933 0.043061644 -0.17289765
0.13476016 0.0059760357 -0.023334052 0.01988931 0.13049254 -0.038537312 0.07327113 0.09330508
0.03871027 0.120693125 -0.058882575 0.021437215 -0.22064911 0.13591072 -0.05872745 0.11214192
0.07327967 0.08387782 0.18703662 0.049132794 -0.03679881 0.33198068 -0.07222271 0.1673645
0.035416804 -0.054235127 -0.03881949 -0.26512998 0.21462893 0.07564225 -0.09065757 -0.19676206
0.08197245 0.1984405 0.2356407 0.4238996 -0.22198738 0.24175002 -0.006627239 0.148095
-0.1247126 -0.06302935 0.0368908 -0.091270365 0.24274948 -0.21954684 0.08812212 0.13471144
-0.21258241 0.17869511 0.19616374 -0.12961997 -0.109984875 0.0011543882 -0.11499048 -0.11216503
0.09003059 0.26011583 0.16528176 0.1556239 0.3082348 0.2046963 0.003286583 -0.039537843
-0.17284057 0.037577294 0.02465532 0.48515722 0.094499424 -0.02425358 0.16164093 0.25343016
0.13172024 0.26738107 -0.15958858 0.057199266 0.15191045 0.087333165 0.07326097 0.2260776
0.18953106 0.04122592 0.20794494 0.08536245 0.042066023 -0.0016970967 -0.022612356 0.08248608
0.096213475 -0.11904949 0.22001754 0.009961339 -0.10387574 -0.11863863 -0.2740119 -0.21801151
0.006495302 0.20641412 -0.11810635 -0.46812835 0.10846551 0.14328755 0.14372674 -0.030359546
0.109194614 -0.081330165 0.07072026 0.14168435 0.07824555 -0.1089911 -0.29623532 0.0844546
0.08733633 -0.17177175 -0.029123714 -0.13511863 -0.07759751 -0.22579873 -0.07024621 0.1726229
-0.20024817 -0.16667362 -0.00893721 -0.09994638 -0.11119824 0.20630251 0.08503268 0.11564667
0.077914976 -0.2771728 0.0684621 -0.21948978 0.19363044 -0.25080413 -0.26232436 0.11226614
-0.08720013 -0.057132304 0.05685547 0.15313706 0.13973044 0.12710536 -0.18146247 -0.17483896
0.14716981 -0.1657956 -0.10518416 0.12795557 0.08897192 -0.15203807 -0.004778982 0.026046813
0.08996111 -0.03113385 0.108478695 -0.1713233 -0.26047295 -0.002593365 0.1730389 0.015149022
0.16879734 0.025436116 -0.058710285 0.07975634 -0.006567872 -0.18996258 -0.21973456 0.13503835
-0.026291111 -0.00012318215 0.14860363 -0.24287549 0.21644154 -0.22342895 0.20254698 -0.12854801
0.10369051 0.1434742 0.20704933 -0.050057977 0.058997765 -0.25821972 -0.011578454 0.109037265
-0.13250384 0.13259421 -0.07164838 0.049912456 -0.047566563 0.069639444 0.012478197 0.026475487
0.002798578 0.19397706 -0.14891443 -0.1359837 0.116617724 0.058893666 0.20027505 0.042380154

decoder_lin.0.bias f4 [16]
00000000: 8143 f7bd 04a7 03be 43c8 473e d8cf 8e3e
00000010: c581 6fbe 966d 4b3d 5800 5ebd 1083 ddbd
00000020: 59f6 a53e fb8d 3bbc 91b4 16be 34c8 8abd
00000030: f398 1cbe 86cf ecbd 171b f8bc f5ba 0fbe
-0.12073422 -0.1285668 0.19509988 0.27892947 -0.23389347 0.049665056 -0.054199547 -0.10816014
0.3241451 -0.011447425 -0.14717318 -0.06776467 -0.1529272 -0.115630195 -0.030286355 -0.14036162

decoder_lin.2.weight f4 [4, 16]
00000000: 1ec8 1dbe e411 ab3c a3ec 893e cbcf 703e
00000010: 3ace 95be a3bb 4ebe 9739 18be 7982 8fbd
00000020: 4d45 103e ef1d 963d a9c3 d3be 97bd c0be
00000030: 4415 28be 10b9 213d 4d3f 5abe 5dd0 c3be
00000040: d84d b63e 2cd8 3b3d 595e bf3c 5ad1 7dbe
00000050: 0bdd ce3d e4e5 9abe f19f 7cbe 37cd 66be
00000060: fd3a 3cbd efd8 713e f5e0 4ebd a443 8fbe
00000070: a47a 683e 4a0e 733e 5e42 a9be 7c74 cc3d
00000080: 6600 fdbd 4fbe db3d 1ffc c8be 154e e1be
00000090: 4b2b 81be 5f6f 323e 8c64 58bd 3ec8 01be
000000a0: 55de ac3d 5747 4fbd dd1c d23d 3fa7 383e
000000b0: 001b a03b 4063 2f3c d37f ac3d 8ab0 173e
000000c0: 6c56 29be e213 e0bd 8182 4bbe 5e9b 5d3e
000000d0: 57ac 8e3d bcf2 24be 3427 37be a3bf a33e
000000e0: 9510 aabe 016b 6ebe e6f4 93be 4441 a13d
000000f0: d8d5 b33d 34a5 babd 0d58 5ebd d4d8 77bd
-0.1540837 0.020882554 0.26938352 0.23516767 -0.292589 -0.20188765 -0.14865719 -0.070073076
0.14088936 0.07329928 -0.41360214 -0.37644646 -0.16414362 0.03948313 -0.2131321 -0.38244906
0.35606265 0.045860454 0.023360418 -0.24786893 0.10100754 -0.30253518 -0.24670388 -0.22539221
-0.045954693 0.2361791 -0.050507504 -0.27981293 0.22703034 0.2373592 -0.33058447 0.09983155
-0.123535916 0.10729658 -0.39254853 -0.44004884 -0.25228342 0.17425297 -0.052830264 -0.12674043
0.08440844 -0.050605144 0.102594115 0.1803255 0.004886031 0.010704815 0.08422818 0.14813438
-0.16536874 -0.10941292 -0.19874002 0.21641299 0.06966465 -0.16108221 -0.17886049 0.31982145
-0.33215776 -0.23283006 -0.2889778 0.078737766 0.08781022 -0.09113541 -0.05428319 -0.060509518

decoder_lin.2.bias f4 [4]
00000000: 5dc2 09bb c142 5dbe 3a86 ba3d 5f8f a1be
-0.002102039 -0.21607496 0.09107633 -0.31554696
