main/utils/models/final_FCN_4_dec_model.pth (torch, 4211 bytes, 4 tensors)

decoder_lin.0.weight f4 [16, 32]
000000 2a ce c0 3a 61 ef 2b 3e e4 6f 03 bd 36 c0 2d 3e
       0.0014709879 0.16790535 -0.03208913 0.16967854
000010 3e ea 39 be da 38 41 bd 9b 73 eb 3d 03 e0 10 3e
       -0.18155763 -0.04717336 0.11496659 0.14147954
000020 a5 3b 6b 3d 16 70 b7 3d ba 31 1f bd 50 1b 34 bd
       0.05742993 0.089569256 -0.038865782 -0.04397136
000030 df 8d df 3d 59 ed 42 3b 42 9c ea 3d 1d 02 d4 bd
       0.10915732 0.002974352 0.11455585 -0.103519656
000040 9a b7 1c bb a8 f2 68 be 00 e2 00 3e 8f e2 b9 bc
       -0.0023913146 -0.22748816 0.12586212 -0.02269104
000050 b0 90 0a be f1 1e 0d be c3 6d 44 bc df 10 69 be
       -0.13531756 -0.13781334 -0.01198906 -0.22760342
000060 12 9e 0d 3e 18 b2 66 3c 59 cb c6 3d 91 cb 9a 3d
       0.1382983 0.014080547 0.09706754 0.075583585
000070 ac b7 b9 bd 71 dc 8a 3b 70 ea 1b be 37 1b 4d be
       -0.09068236 0.0042377044 -0.1522615 -0.20029913
000080 ed d9 06 be 4f 6a 27 bc 10 81 97 bc 2b e8 8b bd
       -0.1316907 -0.010218217 -0.018494159 -0.06831392
000090 a3 ff 77 3d 7c b8 a9 bd b0 fa 11 be 72 bc 2a 3d
       0.06054653 -0.08287141 -0.14255786 0.04168362
0000a0 8f 32 14 3c 01 72 78 bc 18 81 1b bc 02 e4 8d 3d
       0.009045257 -0.015163899 -0.009491228 0.06928255
0000b0 76 86 ab 3d 9b 0b 8a 3d 78 75 b0 3c 23 79 0e 3e
       0.08375256 0.06740495 0.021540388 0.13913397
0000c0 e5 f1 08 3e 2a 43 69 3d ed 77 2b bd 76 41 98 3d
       0.13373525 0.05694882 -0.041862417 0.07434361
0000d0 e1 94 10 be 61 e9 29 be 68 61 30 3d 15 0c 31 be
       -0.14119293 -0.16592933 0.043061644 -0.17289765
0000e0 91 fe 09 3e 9f d2 c3 3b 0e 27 bf bc e8 ee a2 3c
       0.13476016 0.0059760357 -0.023334052 0.01988931
0000f0 d6 9f 05 3e 4d d9 1d bd 2d 0f 96 3d bc 16 bf 3d
       0.13049254 -0.038537312 0.07327113 0.09330508
000100 02 27 1e 3d 9d c1 f6 3d db 2e 71 bd 49 f1 af 3c
       0.03861142 0.120486476 -0.058882575 0.021477358
000110 39 92 62 be 6a 74 0b 3e a6 13 72 bd 46 54 e5 3d
       -0.22126092 0.13618627 -0.05910077 0.111977145
000120 ee db 95 3d 8d 16 ab 3d eb 2d 3f 3e 78 3f 49 3d
       0.07317339 0.083539106 0.1866986 0.049132794
000130 59 ba 16 bd 56 3b aa 3e 80 e9 93 bd 99 61 2b 3e
       -0.03679881 0.33248395 -0.07222271 0.1673645
000140 18 6e 10 3d aa 95 61 bd 42 06 20 bd a2 0a 88 be
       0.035261244 -0.05507437 -0.039068468 -0.26570612
000150 45 5e 5b 3e 06 f3 99 3d 12 3d ba bd c2 c3 49 be
       0.2142268 0.07517056 -0.090936795 -0.19703582
000160 0a c6 a7 3d fc e5 4a 3e 84 72 71 3e 19 b2 d9 3e
       0.0819207 0.19814295 0.2357884 0.4251869
000170 cd b5 63 be ea 43 77 3e 79 75 e7 bb b4 12 17 3e
       -0.2223732 0.24147001 -0.0070635644 0.14753228
000180 6f 18 ff bd be 80 80 bd cf 1a 17 3d 0e fe ba bd
       -0.12455832 -0.062745556 0.0368908 -0.09130488
000190 01 5e 79 3e 73 08 61 be 55 85 b5 3d 43 3e 0a 3e
       0.24352266 -0.2197588 0.08863322 0.13500313
0001a0 00 95 59 be 0a 8a 37 3e 58 6a 49 3e 19 bb 04 be
       -0.21248245 0.17923751 0.19669473 -0.12961997
0001b0 c0 3f e1 bd 3e 54 67 3a 21 80 eb bd c7 b6 e5 bd
       -0.109984875 0.0008824504 -0.11499048 -0.11216503
0001c0 fd 48 b9 3d b4 cb 85 3e b5 a3 29 3e 15 1c 20 3e
       0.090471245 0.26131976 0.16566356 0.15635712
0001d0 6e 49 9e 3e 4f 92 52 3e 7f a8 44 3b 86 22 23 bd
       0.30915397 0.20563625 0.0030007658 -0.039827846
0001e0 5e d8 30 be c1 c1 1b 3d 40 fa c9 3c ed 3c f9 3e
       -0.17270038 0.038026575 0.024655461 0.48679295
0001f0 f9 98 c2 3d cd 1f c3 bc 31 27 26 3e 22 42 82 3e
       0.095018335 -0.023818875 0.16225888 0.2544108
000200 73 b2 06 3e b0 c0 88 3e 30 6b 23 be 24 01 6a 3d
       0.1315401 0.2670951 -0.15958858 0.057129994
000210 36 e1 1a 3e e9 09 b3 3d ee 2c 95 3d bc 47 67 3e
       0.15124974 0.087421246 0.0728396 0.22585958
000220 00 e3 41 3e 91 52 27 3d 7e 8b 54 3e 82 d2 ae 3d
       0.1893425 0.040850226 0.20756337 0.08536245
000230 6c 4d 2c 3d b7 2c 7b ba 8c 3d b9 bc 76 ee a8 3d
       0.042066023 -0.0009581553 -0.022612356 0.08248608
000240 99 d7 c4 3d 2e 8b f5 bd 7c f5 60 3e 44 a2 18 3c
       0.096114345 -0.11989437 0.21968645 0.009316031
000250 05 35 d5 bd 5c e9 f3 bd be 80 8c be 5e a7 5f be
       -0.10410503 -0.11909744 -0.27441972 -0.2184119
000260 a5 33 cf 3b 1e 03 53 3e bc 94 f1 bd 7c 94 ef be
       0.006323295 0.20606658 -0.11795947 -0.46792972
000270 89 25 dd 3d b1 5c 12 3e 7c a4 12 3e 5b 92 fd bc
       0.10798175 0.14293171 0.14320558 -0.030953577
000280 43 18 e0 3d 9b 2a a6 bd c9 d5 90 3d c4 59 11 3e
       0.109421276 -0.08113595 0.07072026 0.14194399
000290 34 3f a0 3d 62 a8 de bd e4 fd 97 be ad 3c ad 3d
       0.07824555 -0.1087196 -0.2968589 0.084588386
0002a0 0c 74 b3 3d 2d 80 30 be d9 f7 f3 bc 8a 5c 0a be
       0.087623686 -0.17236395 -0.029781269 -0.13511863
0002b0 71 eb 9e bd c1 2e 67 be 3f dd 8f bd 0f c4 30 3e
       -0.07759751 -0.22576429 -0.07024621 0.1726229
0002c0 f7 56 4d be 7d ac 2a be 73 b4 10 bc b0 b0 cc bd
       -0.20052706 -0.16667362 -0.008832085 -0.09994638
0002d0 8b 62 e5 bd 04 44 53 3e 36 22 af 3d fe d3 ed 3d
       -0.11200436 0.20631415 0.08551447 0.116127
0002e0 de 0a a0 3d 70 17 8e be 92 83 8c 3d 0c 2d 61 be
       0.07814573 -0.27752256 0.068610325 -0.2198984
0002f0 08 6a 46 3e e8 bc 80 be 42 b9 86 be ca eb e5 3d
       0.19376385 -0.25144124 -0.26313215 0.11226614
000300 d2 08 b2 bd 09 0d 69 bd 48 e1 68 3d 70 1e 1d 3e
       -0.086930886 -0.056897197 0.05685547 0.15343642
000310 7f 15 0f 3e 51 77 02 3e d1 79 3a be a4 dc 32 be
       0.13973044 0.12740828 -0.18210532 -0.1746698
000320 2a 08 17 3e 7e 53 2a be c8 b9 d8 bd c9 06 03 3e
       0.14749208 -0.16633412 -0.1058231 0.12795557
000330 e9 36 b6 3d 1a a0 1b be 02 99 9c bb 20 60 d5 3c
       0.08897192 -0.15197793 -0.004778982 0.026046813
000340 5b bc b7 3d 6a 0c ff bc 81 75 de 3d 60 6f 2f be
       0.08971473 -0.03113385 0.10862256 -0.1713233
000350 d4 c2 85 be da d3 26 bb 2a be 31 3e 99 99 80 3c
       -0.26125205 -0.0025455863 0.17357698 0.015698241
000360 95 1f 2d 3e 6f d3 cd 3c cf bb 6f bd 0f 9b a2 3d
       0.16906579 0.025125233 -0.058528718 0.07939731
000370 d7 6a d1 bb 9a 48 43 be ae e2 61 be 7e 47 0a 3e
       -0.00639091 -0.19070664 -0.22059128 0.13503835
000380 2d 1b d6 bc 28 5f 1f 39 8d 2b 18 3e 55 b9 78 be
       -0.026136005 0.0001519887 0.14860363 -0.24289449
000390 0b 66 5e 3e a1 0a 65 be 71 e7 4f 3e 13 5f 03 be
       0.21718614 -0.22367336 0.20303132 -0.12829237
0003a0 6d a0 d4 3d 03 69 13 3e 2a 81 54 3e 98 09 4d bd
       0.10382161 0.14395528 0.20752397 -0.050057977
0003b0 a4 a7 71 3d 46 75 84 be 8e b3 3d bc ee 4e df 3d
       0.058997765 -0.25870723 -0.011578454 0.109037265
0003c0 1e 5b 07 be 16 e2 08 3e e9 03 92 bd b0 54 4f 3d
       -0.13218352 0.13367495 -0.07129652 0.050617874
0003d0 2b f2 3f bd 85 3c 90 3d 5a 71 4c 3c 1f e3 d8 3c
       -0.04686181 0.07042793 0.012478197 0.026475487
0003e0 00 bc 3f 3b 65 0d 47 3e 89 91 18 be b5 8d 0b be
       0.0029256344 0.19438703 -0.14899267 -0.13628276
0003f0 29 dd ef 3d 4c d8 72 3d 31 ac 4d 3e 60 e6 30 3d
       0.11712105 0.059288308 0.20085217 0.043188453

decoder_lin.0.bias f4 [16]
000000 35 95 f7 bd 04 a7 03 be e0 b0 47 3e 53 f9 8e 3e
       -0.12089006 -0.1285668 0.19501066 0.27924594
000010 8a 6f 6f be 34 10 4b 3d 8b 8d 5e bd d5 0e dd bd
       -0.23382393 0.049576 -0.054334205 -0.107938446
000020 7a f6 a5 3e 06 8e 3b bc a6 d1 16 be 91 5b 8a bd
       0.3241461 -0.011447435 -0.14728412 -0.06755746
000030 f3 98 1c be 86 cf ec bd 06 f0 f8 bc fb dd 0f be
       -0.1529272 -0.115630195 -0.03038789 -0.14049523

decoder_lin.2.weight f4 [4, 16]
000000 af fc 1d be e4 11 ab 3c 3f d9 89 3e 99 8e 70 3e
       -0.15428422 0.020882554 0.26923558 0.23491897
000010 57 00 96 be a3 bb 4e be 97 39 18 be 75 31 90 bd
       -0.29297134 -0.20188765 -0.14865719 -0.07040683
000020 b4 11 10 3e ef 1d 96 3d d8 ca d3 be 74 ef c0 be
       0.14069253 0.07329928 -0.41365695 -0.37682688
000030 44 15 28 be 10 b9 21 3d 4d 3f 5a be 87 f8 c3 be
       -0.16414362 0.03948313 -0.2131321 -0.3827555
000040 64 52 b6 3e 2c d8 3b 3d 89 26 bb 3c f0 c5 7e be
       0.35609734 0.045860454 0.022845523 -0.24880195
000050 79 12 ce 3d 53 4d 9b be ba 89 7d be 25 97 67 be
       0.10062117 -0.3033243 -0.2475957 -0.22616251
000060 aa 01 3e bd eb d8 71 3e 0a f9 4c bd 70 da 8f be
       -0.046388306 0.23617904 -0.05004219 -0.28096342
000070 a4 7a 68 3e 4a 0e 73 3e d0 b1 a9 be 6f ee cb 3d
       0.22703034 0.2373592 -0.33143473 0.09957587
000080 c9 29 fd bd 4f be db 3d a2 29 c9 be fa 69 e1 be
       -0.123614855 0.10729658 -0.39289576 -0.44026166
000090 9c 39 81 be 39 10 33 3e c8 36 55 bd 3f c8 01 be
       -0.25239265 0.17486657 -0.052054197 -0.12674044
0000a0 66 a1 ac 3d 3d 47 4f bd 0b 5c d2 3d 3f a7 38 3e
       0.08429222 -0.050605047 0.10271462 0.1803255
0000b0 00 1b a0 3b 40 63 2f 3c d3 df ad 3d 23 bd 17 3e
       0.004886031 0.010704815 0.08489957 0.14818244
0000c0 16 70 29 be e2 13 e0 bd c7 78 4b be 92 f9 5d 3e
       -0.16546664 -0.10941292 -0.19870292 0.21677235
0000d0 bd 28 8f 3d bc f2 24 be 34 27 37 be b4 05 a4 3e
       0.06990192 -0.16108221 -0.17886049 0.320356
0000e0 0c 33 aa be 01 6b 6e be 6f 68 94 be 9c 26 a3 3d
       -0.3324207 -0.23283006 -0.28985927 0.079663485
0000f0 d8 d5 b3 3d 34 a5 ba bd 0d 58 5e bd 96 62 77 bd
       0.08781022 -0.09113541 -0.05428319 -0.060396753

decoder_lin.2.bias f4 [4]
000000 26 cb 0a bb 96 a9 5d be 01 76 ba 3d e8 86 a1 be
       -0.0021178215 -0.21646723 0.09104539 -0.31548238
