main/utils/models/final_FCN_4_enc_model.pth (torch, 133575 bytes, 6 tensors)

encoder_lin.0.weight f4 [125, 180]
-0.09467767 -0.12329177 -0.038017746 -0.014712476 -0.08786528 -0.074059874 -0.0090712495 -0.02877638
-0.10512887 0.0043296125 0.024473628 -0.06645671 -0.011182197 0.00941698 -0.014136441 -0.025874933
0.04455873 -0.03179554 0.05075729 0.056499552 -0.08360665 0.023532525 0.029929528 0.04810033
-0.028736591 0.021075636 -0.09386885 -0.08379203 -0.07522858 -0.07209785 0.02521826 0.0561623
0.031763725 0.032402977 0.03259871 -0.016956257 0.037178133 0.05139947 -0.044797223 0.05449936
0.053408694 -0.053495593 0.01891664 0.03167118 0.061137415 0.03812108 0.03174882 -0.06793023
0.035508815 0.06861814 0.07191865 0.04360962 -0.056849808 0.030874537 -0.052926887 0.027033828
0.005373403 -0.04133062 -0.04091957 0.028832316 0.084942855 -0.0077419966 -0.046822146 -0.021367269
0.04616369 0.00488586 -0.048059937 0.012399144 -0.009161025 0.07423395 -0.016780218 -0.021753151
0.041477446 -0.03848771 -0.0050982293 0.00049435906 0.07487506 0.013698481 -0.00046564103 -0.0134091135
0.04304841 0.020118427 0.0095191905 -0.05164358 -0.06046636 0.019441579 -0.04706145 0.07044274
0.026463093 0.030814853 0.023802523 -0.018520651 -0.022174845 -0.043583218 -0.11618228 -0.004821014
-0.11921374 0.019376041 -0.09474141 0.011471558 -0.030265128 -0.030086394 -0.06216505 -0.09942184
-0.086244 -0.06264365 -0.00038092522 0.0011383907 0.0068770107 -0.10997093 -0.05345056 0.024040425
-0.06007089 -0.06707359 0.0277821 0.005274285 -0.05998281 -0.061165776 -0.07891589 -0.006873763
0.07614157 -0.01504988 0.064971894 0.11531832 0.1425753 0.14172962 0.1340995 0.061263878
0.105065316 0.133294 0.050056353 0.13686353 0.07763663 0.0041334713 0.018506749 0.0567441
0.011178915 0.14319764 0.043182466 0.06421239 0.14741468 0.06636384 0.13900764 0.017849604
0.06987678 0.025999265 0.09813363 0.06644887 0.10637461 -0.043461297 0.0075173005 0.0459249
0.06876498 0.0486559 -0.0060052904 0.081274755 -0.005893487 0.08416171 -0.037238188 0.10504085
0.11387462 -0.017535552 0.09473269 0.05579295 0.030828513 0.0011464327 0.066249736 0.1078357
0.043377582 0.10445703 0.05834406 0.06211436 0.024632372 0.077395394 0.006108853 0.060073715
0.028074516 0.084539354 0.05537798 0.04093884 -0.32049283 -0.3018258 -0.32916445 -0.2436658
-0.22393192 -0.33191195 -0.2909166 -0.3409615 -0.35749766 -0.24756613 -0.22926427 -0.2630442
-0.24624877 -0.29034597 -0.35037804 -0.3401029 -0.36200774 -0.25971696 -0.35369018 -0.35599798
-0.24078828 -0.26986983 -0.28129965 -0.35490936 -0.33456224 -0.28417492 -0.34110728 -0.30527917
-0.30178005 -0.32451907 -0.14729072 -0.1943199 -0.21442452 -0.18441306 -0.14548911 -0.13979262
-0.1063139 -0.2265403 -0.099868834 -0.10088935 -0.17817171 -0.13587186 -0.21123824 -0.11153729
-0.17563693 -0.1877302 -0.21583591 -0.20582417 -0.17713575 -0.12069525 -0.19206421 -0.12392736
-0.122838035 -0.23278773 -0.12382022 -0.14233787 -0.1321816 -0.23612292 -0.15988502 -0.12305931
-0.19440214 -0.147192 -0.2505856 -0.17722599 -0.1277396 -0.22677903 -0.17841549 -0.17730917
-0.24220796 -0.16169274 -0.15940435 -0.21764377 -0.14599639 -0.20188929 -0.17126381 -0.14538504
00000000: 5ee6 c1bd 6580 fcbd 7fb8 1bbd 990c 71bc
00000010: b6f2 b3bd b4ac 97bd 949f 14bc 71bc ebbc
00000020: ce4d d7bd 6cdf 8d3b eb7c c83c 751a 88bd
00000030: 8935 37bc ad49 1a3c 889c 67bc abf7 d3bc
00000040: 3783 363d 0a3c 02bd e0e6 4f3d 136c 673d
00000050: f739 abbd 48c7 c03c c52e f53c da04 453d
00000060: 0069 ebbc d0a6 ac3c 503e c0bd 289b abbd
00000070: 7111 9abd 0aa8 93bd 8696 ce3c 710a 663d
00000080: ae1a 023d fcb8 043d 3a86 053d d9e7 8abc
00000090: 1948 183d 4088 523d 4b7d 37bd b93a 5f3d
000000a0: 13c3 5a3d 321e 5bbd 12f7 9a3c a4b9 013d
000000b0: 3a6b 7a3d d924 1c3d 0d0b 023d 011f 8bbd
000000c0: b171 113d ab87 8c3d 164a 933d 00a0 323d
000000d0: 58db 68bd 99ec fc3c ddc9 58bd 0c76 dd3c
000000e0: 5f13 b03b 4c4a 29bd 479b 27bd c031 ec3c
000000f0: 85f6 ad3d 93b0 fdbb 94c8 3fbd 690a afbc
00000100: 2316 3d3d 9019 a03b 7fda 44bd c725 4b3c
00000110: 2018 16bc f807 983d ab76 89bc aa33 b2bc
00000120: 41e4 293d 4aa5 1dbd 0c0f a7bb e097 013a
00000130: 1858 993d 986f 603c 4821 f4b9 e6b1 5bbc
00000140: 8853 303d 66cf a43c 61f6 1b3c 3888 53bd
00000150: 93ab 77bd f243 9f3c 82c3 40bd 4944 903d
00000160: 21c9 d83c 6e6f fc3c 82fd c23c 9fb8 97bc
00000170: 05a8 b5bc 5184 32bd faf0 edbd 99f9 9dbb
00000180: 5526 f4bd 81ba 9e3c c907 c2bd 34f3 3b3c
00000190: 93ee f7bc be77 f6bc c8a0 7ebd ad9d cbbd
000001a0: b2a0 b0bd 504b 80bd ebb6 c7b9 0e36 953a
000001b0: 8c58 e13b 7038 e1bd f9ee 5abd 6df0 c43c
000001c0: e50c 76bd e15d 89bd 4997 e33c e9d3 ac3b
000001d0: 89b0 75bd f788 7abd a79e a1bd 4e3d e1bb
000001e0: 1df0 9b3d c693 76bc fc0f 853d 032c ec3d
000001f0: 42ff 113e 9221 113e 6151 093e d5ef 7a3d
00000200: 7c2c d73d 397e 083e e407 4d3d f425 0c3e
00000210: f4ff 9e3d 1272 873b 779b 973c 806c 683d
00000220: c527 373c 67a2 123e 19e0 303d c981 833d
00000230: e0f3 163e c4e9 873d 0558 0e3e 5539 923c
00000240: 8f1b 8f3d 69fc d43c 49fa c83d 5816 883d
00000250: eeda d93d 7904 32bd b053 f63b bf1b 3c3d
00000260: a7d4 8c3d 694b 473d 07c8 c4bb 6173 a63d
00000270: 271e c1bb fa5c ac3d 1287 18bd a81f d73d
00000280: 1937 e93d b8a6 8fbc 3603 c23d 2687 643d
00000290: 148c fc3c e643 963a f1ad 873d f7d8 dc3d
000002a0: b1ac 313d 91ed d53d 2efa 6e3d a16b 7e3d
000002b0: d4c9 c93c 7a81 9e3d c62c c83b db0f 763d
000002c0: 87fc e53c f822 ad3d 05d4 623d 7caf 273d
000002d0: a317 a4be e988 9abe 3e88 a8be 8783 79be
000002e0: 694e 65be 5df0 a9be 05f3 94be 8192 aebe
000002f0: ef09 b7be fa81 7dbe 41c4 6abe bbad 86be
00000300: a328 7cbe 3aa8 94be c064 b3be f821 aebe
00000310: 1459 b9be 9ff9 84be e116 b5be 5e45 b6be
00000320: 3491 76be 612c 8abe 8206 90be aeb6 b5be
00000330: be4b abbe 607f 91be 9da5 aebe 8d4d 9cbe
00000340: ea82 9abe 5d27 a6be 61d3 16be ccfb 46be
00000350: 1a92 5bbe c7d6 3cbe 19fb 14be cc25 0fbe
00000360: 1abb d9bd 2efa 67be 0888 ccbd 139f cebd
00000370: a572 36be fe21 0bbe d64e 58be aa6d e4bd
00000380: 2bda 33be 583c 40be 1704 5dbe 92c3 52be
00000390: 1363 35be 122f f7bd 7bac 44be a1cd fdbd
000003a0: 8292 fbbd e85f 6ebe 7595 fdbd 05c1 11be
000003b0: 9d5a 07be 35ca 71be e6b8 23be 8506 fcbd
000003c0: 5b11 47be 80b9 16be c14c 80be bb7a 35be
000003d0: 2bce 02be c338 68be 8db2 36be 8990 35be
000003e0: 5d05 78be c892 25be e53a 23be 02de 5ebe
000003f0: 1480 15be 11bc 4ebe c85f 2fbe d1df 14be

encoder_lin.0.bias f4 [125]
0.022838445 0.3618948 -0.09348807 0.37191495 0.004806614 0.27774027 -0.036682285 -0.03710853
-0.047374923 -0.061771255 0.29354748 0.025381655 0.09040822 -0.008383726 -0.035319127 0.2099316
0.0043324055 0.030109199 0.25873986 0.016731856 -0.03617543 -0.06466271 -0.049432058 0.4045357
0.31892946 0.048161764 0.52431923 0.29515138 0.0110394 0.0038460407 0.27196983 -0.0054149195
0.15303783 0.29262453 -0.010789344 0.019163892 0.32596818 0.016885778 -0.075948186 0.4179055
-0.011320123 0.04071363 -0.0039693667 0.35421032 -0.0389643 0.080753505 0.3234245 -0.011747821
0.24147432 -0.01003046 -0.0056073098 0.004784954 -0.04827802 0.23269898 0.2532774 0.18572843
-0.052947 0.23258385 -0.027718613 0.054502 -0.039327037 0.51522386 -0.0118614705 -0.038652204
0.01787929 0.010083392 0.34061807 0.306582 0.25427273 -0.053510953 0.20926374 0.035548523
0.07768231 -0.026352944 0.37001404 -0.03641769 -0.008265761 0.022157177 -0.0013085159 0.37773404
-0.03300304 0.23602512 0.20927499 0.08737256 -0.040688194 0.39800215 -0.04863639 0.19606857
-0.022931173 0.057849344 0.43957567 0.026802614 0.012088444 0.28167716 0.31510028 0.011327534
0.28681982 0.37058628 -0.037669476 0.015157945 0.094901145 0.34615207 -0.055880915 0.008680737
-0.06643862 0.3882721 -0.06687649 0.30511612 0.038442615 0.2770548 0.025358424 0.31502098
-0.0665211 0.31967062 0.32823476 -0.026855418 0.043231867 0.3715446 -0.028482042 0.003762353
-0.010856916 0.4265457 -0.038876876 -0.016115922 -0.018342584
00000000: b117 bb3c 464a b93e ac76 bfbd a36b be3e
00000010: cd80 9d3b f933 8e3e 2a40 16bd 1dff 17bd
00000020: 350c 42bd db03 7dbd db4b 963e 30ed cf3c
00000030: f227 b93d e55b 09bc caaa 10bd 4ff8 563e
00000040: daf6 8d3b 91a7 f63c 8d79 843e 3f11 893c
00000050: b02c 14bd e26d 84bd 4579 4abd 4e1f cf3e
00000060: b94a a33e 4545 453d c939 063f 151e 973e
00000070: 99de 343c db0d 7c3b a13f 8b3e a36f b1bb
00000080: f3b5 1c3e e2d2 953e cac5 30bc 98fd 9c3c
00000090: 4de5 a63e 0b54 8a3c b98a 9bbd b6f7 d53e
000000a0: 0a78 39bc 56c3 263d 7611 82bb 0e5b b53e
000000b0: 0899 1fbd 1862 a53d e597 a53e ef79 40bc
000000c0: 0b45 773e cc56 24bc 86bd b7bb 1acb 9c3b
000000d0: 2cbf 45bd a448 6e3e 93ad 813e 982f 3e3e
000000e0: f4de 58bd 762a 6e3e 2512 e3bc 7d3d 5f3d
000000f0: 6315 21bd b6e5 033f 9d56 42bc c651 1ebd
00000100: 9777 923c d034 253c 7e65 ae3e 51f8 9c3e
00000110: 0930 823e 4d2e 5bbd 3c49 563e 549b 113d
00000120: e717 9f3d 21e2 d7bc 7b72 bd3e b72a 15bd
00000130: 1d6d 07bc f882 b53c 8282 abba 5b66 c13e
00000140: 322e 07bd 92b0 713e 2f4c 563e 62f0 b23d
00000150: aaa8 26bd f0c6 cb3e f436 47bd 33c6 483e
00000160: 28da bbbc 6ff3 6c3d 1010 e13e 2891 db3c
00000170: 9c0e 463c fd37 903e d354 a13e 1f97 393c
00000180: 0cda 923e 7cbd bd3e 4f4b 1abd 0859 783c
00000190: 885b c23d d83a b13e 63e3 64bd a639 0e3c
000001a0: f910 88bd 9acb c63e 8bf6 88bd 2e38 9c3e
000001b0: 0176 1d3d 20da 8d3e 78bc cf3c 6e4a a13e
000001c0: 373c 88bd deab a33e 630e a83e e5ff dbbc
000001d0: e613 313d 183b be3e 2c53 e9bc cf91 763b
000001e0: 35e1 31bc 3364 da3e 5c3d 1fbd 8a05 84bc
000001f0: 3043 96bc

encoder_lin.2.weight f4 [64, 125]
-0.019614575 -0.027906923 -0.05599984 0.07304919 -0.056197517 0.11938978 0.097140096 0.061820053
0.09663658 0.04851933 -0.11680297 0.124322906 -0.04096975 0.082175694 0.16906974 0.004134329
0.024371868 0.06643291 -0.028153429 0.096572265 0.04913325 0.12566136 0.09922833 0.119578525
0.063838385 0.0118220225 -0.12762378 -0.14526059 0.03203163 0.0772906 0.015936248 0.09821727
0.15391946 0.16637583 0.014494454 -0.032976646 -0.051450815 0.070969835 -0.0017516823 0.0060652858
0.0643722 0.024404518 -0.004318052 0.079969086 0.15431803 -0.093790114 -0.012338842 0.061025087
-0.06484835 0.1779065 0.029786883 -0.05363222 0.0584957 -0.016081074 -0.09556229 -0.04252913
0.15186775 0.039499328 -0.008097028 0.12639743 -0.06743956 0.026923943 0.09360059 0.050536335
0.059679918 0.18599437 -0.031928148 0.056847297 -0.051107723 0.059019815 -0.021730462 -0.019265655
0.073809154 0.06378693 0.05794744 0.11260372 -0.05583499 0.029371101 0.18885925 0.060139015
0.023289977 0.00800786 0.067703135 0.08649691 0.1421833 0.05608108 0.040605403 0.045307055
0.18275721 0.059378285 -0.0072559263 0.057798997 0.07172555 0.013475326 -0.2222257 0.09291289
-0.027264496 -0.014781021 0.1827266 -0.039591737 -0.080955416 -0.08100321 0.04854541 0.037333637
0.14304376 0.044312797 0.17550923 0.006601523 -0.098976806 0.016622292 -0.11019029 0.16890672
0.16173528 -0.025923181 -0.2098022 0.04156033 -0.14208202 0.050310913 0.096075095 0.10807448
-0.10284364 0.08299133 0.21578136 0.16224808 0.114889845 0.10500502 0.08467383 -0.105805285
-0.019294845 0.058149833 0.128747 0.10131313 0.00056204933 0.018498635 0.008850193 0.0344785
0.10020106 -0.06883836 0.07504148 0.07575184 -0.05798833 0.032559294 0.024771705 -0.066501625
-0.06204419 0.06631949 -0.04137943 -0.009343575 0.20864902 0.08723138 0.13195923 0.12141391
0.023579843 -0.014384757 -0.077035084 0.02261379 0.13088588 0.09137657 0.22611429 0.0063283066
0.09503455 -0.052863993 -0.0012441091 -0.07557497 0.1890463 0.037674364 0.06240521 -0.029834878
0.1597682 -0.0010438991 -0.007265799 0.17339888 0.019993303 -0.094216816 -0.03942 -0.06592055
-0.024434593 -0.016554592 -5.270405e-05 -0.039740846 -0.053212985 0.11902477 0.030662471 -0.07871772
0.11281362 -0.04719017 0.26205623 -0.00685036 -0.050644603 0.099486955 0.13053444 0.089912795
0.0745867 0.071887195 -0.03161359 0.09554356 -0.025788832 0.04442049 -0.0054030553 0.15220419
0.03508941 0.06472988 -0.010567271 0.039587565 0.14431436 -0.06838694 0.10718299 0.022127878
-0.010022926 0.105486356 -0.02810667 0.049931988 0.04613617 -0.023874274 0.061043944 0.15905999
0.0038803844 0.021052718 0.08253614 0.08562721 0.06674563 0.06275856 0.09446826 -0.029534256
0.106638454 -0.03470338 0.0835318 0.03668599 -0.054230258 0.04341699 0.124349646 0.0064804456
0.15401478 -0.022301856 0.103541516 0.06511311 0.15778838 -0.09379157 0.025606345 0.033896256
0.017258812 -0.023047728 0.14662695 0.043308254 -0.012477102 -0.055481486 0.12421958 -0.021404065
0.086996384 0.058225736 -0.041910764 -0.01673997 0.13038847 0.09204301 -0.014621931 -0.030596737
00000000: bfae a0bc 0f9d e4bc 1760 65bd d09a 953d
00000010: 5e2f 66bd a182 f43d 63f1 c63d 0637 7d3d
00000020: 66e9 c53d 34bc 463d 6536 efbd 029d fe3d
00000030: e6cf 27bd bb4b a83d 9e20 2d3e 4479 873b
00000040: 83a7 c73c fa0d 883d 05a2 e6bc aec7 c53d
00000050: f23f 493d 5fad 003e 3938 cb3d 96e5 f43d
00000060: b3bd 823d 28b1 413c cfaf 02be 31bf 14be
00000070: 9933 033d 894a 9e3d bc8c 823c 2326 c93d
00000080: 109d 1d3e 6d5e 2a3e 257a 6d3c 8512 07bd
00000090: 17be 52bd a258 913d b498 e5ba 4ebf c63b
000000a0: 92d5 833d fceb c73c 727e 8dbb d5c6 a33d
000000b0: 8c05 1e3e 0815 c0bd db28 4abc 71f5 793d
000000c0: 36cf 84bd 1f2d 363e 9f03 f43c 75ad 5bbd
000000d0: 3099 6f3d 75bc 83bc 29b6 c3bd 0633 2ebd
000000e0: 3883 1b3e 0cca 213d 66a9 04bc 546e 013e
000000f0: c11d 8abd 9a8f dc3c abb1 bf3d 30ff 4e3d
00000100: ee72 743d 4f75 3e3e 17c7 02bd b6d8 683d
00000110: 5556 51bd c3be 713d 1504 b2bc 02d3 9dbc
00000120: 4129 973d b9a2 823d 4b5a 6d3d c79c e63d
00000130: 3bb3 64bd aa9b f03c 5264 413e 5454 763d
00000140: 9fca be3c 6633 033c f1a7 8a3d 4b25 b13d
00000150: 8098 113e 46b5 653d da51 263d e493 393d
00000160: b524 3b3e a536 733d 1fc3 edbb a4be 6c3d
00000170: d8e4 923d 9dc7 5c3c 228f 63be 1d49 be3d
00000180: cb59 dfbc 182c 72bc af1c 3b3e f22a 22bd
00000190: f4cb a5bd 03e5 a5bd 8dd7 463d 28eb 183d
000001a0: 107a 123e 5681 353d b1b8 333e 9751 d83b
000001b0: 5ab4 cabd 792b 883c 72ab e1bd e2f5 2c3e
000001c0: ef9d 253e da5c d4bc 63d6 56be 2a3b 2a3d
000001d0: f37d 11be d112 4e3d 05c3 c43d 2756 dd3d
000001e0: b09f d2bd 5cf7 a93d caf5 5c3e 5c24 263e
000001f0: 5e4b eb3d df0c d73d 7969 ad3d 71b0 d8bd
00000200: 3910 9ebc 852e 6e3d 41d6 033e 427d cf3d
00000210: 7e56 133a 738a 973c 6600 113c 5439 0d3d
00000220: 3736 cd3d 20fb 8cbd 59af 993d c823 9b3d
00000230: 2c85 6dbd e55c 053d 08ee ca3c 0132 88bd
00000240: 0c22 7ebd 83d2 873d 7a7d 29bd cb15 19bc
00000250: 17a8 553e 5ea6 b23d 5220 073e dba7 f83d
00000260: 842a c13c 0bae 6bbc 92c4 9dbd 8e40 b93c
00000270: f306 063e a423 bb3d 818a 673e af5d cf3b
00000280: 79a1 c23d ea87 58bd 6011 a3ba 0dc7 9abd
00000290: 5a95 413e 6f50 1a3d 9b9c 7f3d 4668 f4bc
000002a0: 469a 233e 71d3 88ba f115 eebb 7a8f 313e
000002b0: ffc8 a33c bff4 c0bd de76 21bd 5a01 87bd
000002c0: 0e2b c8bc 7f9d 87bc 8b0e 5db8 4cc7 22bd
000002d0: dcf5 59bd 42c3 f33d dd2f fb3c c236 a1bd
000002e0: d40a e73d 7b4a 41bd 3c2c 863e fc78 e0bb
000002f0: b770 4fbd d1bf cb3d d2aa 053e 3324 b83d
00000300: e9c0 983d 9839 933d 407d 01bd 58ac c33d
00000310: 1a43 d3bc 42f2 353d 1d0c b1bb 6adb 1b3e
00000320: eab9 0f3d 1991 843d 5922 2dbc 9226 223d
00000330: 25c7 133e 740e 8cbd c182 db3d 8645 b53c
00000340: 3337 24bc 3b09 d83d f63f e6bc 7c85 4c3d
00000350: 48f9 3c3d fb93 c3bc 3709 7a3d 9fe0 223e
00000360: 0c4e 7e3b c076 ac3c b508 a93d 525d af3d
00000370: efb1 883d 8f87 803d 9378 c13d d3f1 f1bc
00000380: 4365 da3d 2225 0ebd b812 ab3d 0c44 163d
00000390: 8c20 5ebd 04d6 313d 07ab fe3d eb59 d43b
000003a0: 0db6 1d3e 62b2 b6bc 930d d43d 065a 853d
000003b0: 4793 213e cb15 c0bd 66c4 d13c cdd6 0a3d
000003c0: 5a62 8d3c 97ce bcbc 6025 163e ff63 313d
000003d0: c26c 4cbc 8e40 63bd d666 fe3d 9457 afbc
000003e0: 292b b23d 1c7e 6e3d 9faa 2bbd 4322 89bc
000003f0: 8e84 053e 0c81 bc3d d390 6fbc 02a6 fabc

encoder_lin.2.bias f4 [64]
-0.038823854 0.20932844 -0.026409203 -0.09718713 -0.062350042 0.09650892 0.36274523 0.18096837
0.1817677 -0.06357178 0.31490064 0.13689429 0.08447738 0.3348999 0.3847654 0.036916923
0.17500336 0.03704723 0.012245515 -0.12130539 -0.086766526 0.32191387 -0.09373295 0.10658168
-0.1720741 -0.092574306 0.17629124 0.19943146 0.20288537 0.0601662 -0.05003367 -0.0028844194
0.03216439 -0.2194978 -0.0050444817 0.18416776 0.23055832 0.142095 -0.04497093 0.17040427
0.29909334 0.22279963 0.067499496 0.22389619 -0.19192104 0.05937902 0.38829812 -0.07440715
0.015197095 -0.20855021 -0.074513756 -0.13911307 -0.052786354 -0.041783214 -0.08337825 -0.13450833
-0.06898166 0.23000109 0.1995362 0.20386313 0.047162384 0.02686246 -0.015682537 -0.061932642
00000000: c305 1fbd 325a 563e 1d58 d8bc 0c0a c7bd
00000010: c262 7fbd 78a6 c53d beb9 b93e c64f 393e
00000020: 5021 3a3e ec31 82bd a83a a13e 042e 0c3e
00000030: 7a02 ad3d 0078 ab3e f8ff c43e 3336 173d
00000040: 1534 333e d6be 173d 6aa1 483c f66e f8bd
00000050: a6b2 b1bd e5d1 a43e 10f7 bfbd 7f47 da3d
00000060: 3134 30be 9997 bdbd b185 343e c337 4c3e
00000070: 2fc1 4f3e d570 763d 1bf0 4cbd 8708 3dbb
00000080: cfbe 033d 08c4 60be 2e4c a5bb 7996 3c3e
00000090: 7b17 6c3e 5a81 113e 7033 38bd 757e 2e3e
000000a0: c322 993e 9625 643e 2d3d 8a3d 0b45 653e
000000b0: f386 44be 6a37 733d 03cf c63e c762 98bd
000000c0: 3dfd 783c 308e 55be ab9a 98bd a873 0ebe
000000d0: 8136 58bd e024 2bbd 37c2 aabd 8dbc 09be
000000e0: 4246 8dbd 6885 6b3e 3853 4c3e 7fc1 503e
000000f0: 582d 413d a90e dc3c aa78 80bc 15ad 7dbd

encoder_lin.4.weight f4 [32, 64]
0.1636284 0.1256152 -0.015012296 0.25666016 0.1563606 0.18904215 -0.069869995 0.0070623183
-0.12948312 0.1191965 -0.025438996 0.15414709 0.123702504 0.011401561 -0.12577161 0.051789533
-0.053745348 0.1979654 0.013691757 0.023015944 -0.025311062 -0.21244657 0.18058312 0.02118838
0.09403353 -0.087861724 0.12686995 0.10595401 -0.12759933 0.23965669 0.17910714 0.05752756
-0.12668091 0.032163285 0.23142081 0.12918405 -0.059276283 0.10976458 0.050852988 -0.117948785
0.104891784 -0.08767935 0.054796632 0.061952382 0.048776913 0.1532317 0.085193284 -0.0781034
0.16392367 -0.065165184 -0.007745047 0.045196947 -0.083710305 -0.11184801 -0.12973702 0.100070395
0.19994485 0.1828821 0.057783738 0.20242727 0.24437816 0.18927243 0.122988634 0.14371024
0.18820016 0.17992036 -0.16914682 0.13941833 -0.069517314 0.10100481 0.11622895 -0.14390431
-0.071950994 -0.12036097 0.09039404 0.013499031 -0.032029156 0.023987198 -0.3495812 0.11879106
0.10263171 0.04315631 -0.10755006 -0.11513888 0.044779815 -0.089646876 0.15582001 0.14634824
0.22167657 -0.08578508 -0.0466789 0.068856634 -0.065245576 -0.053287998 -0.044443946 0.1124957
0.14473745 0.15194847 0.04545158 0.15198608 -0.12481918 0.16544378 0.15099709 0.022603339
0.18124075 0.15712275 0.055646837 -0.017870305 0.059444286 0.14549014 -0.008372263 0.13526136
-0.116025485 0.1549379 -0.12978238 0.1718002 0.014541756 0.087572455 -0.0071052415 0.20141532
0.04897238 0.1459426 0.035141163 0.10660467 0.04727034 -0.042104222 -0.038997944 0.110028274
0.10054566 0.05465836 -0.09092747 0.08795215 0.005744979 0.01714961 -0.11218738 -0.006181933
0.10041335 0.0027631074 0.011058188 -0.02044569 -0.10818823 0.009718289 0.0716282 -0.030462801
0.023745064 0.04907561 -0.09382774 -0.058789477 -0.023578852 -0.03465552 -0.06319717 0.0028826743
0.008821294 -0.07609925 0.096240714 -0.10879842 -0.12160432 0.002987355 -0.046853498 -0.121901736
-0.06819664 0.035897154 -0.119886175 -0.016003892 0.033096086 0.0022080243 -0.11461736 -0.10811591
0.07369021 0.020056203 0.02851823 0.023335166 -0.008405954 -0.11915582 0.021460235 0.04184051
-0.1186427 0.04902841 0.004968524 -0.031468187 -0.032470696 0.12010564 -0.122941434 -0.057499185
-0.11750692 -0.052457802 0.0062498017 -0.11306521 0.11226667 0.05047524 0.045102492 -0.0411999
0.1873233 0.12874915 -0.20901749 0.18754503 0.119692355 0.14495456 0.0766524 0.009546218
-0.11733709 0.05807159 -0.061488602 -0.0228125 -0.013930268 0.107350565 -0.03901513 -0.010423075
-0.042564083 0.12174041 0.21347523 -0.15980683 0.09441471 -0.05742136 0.17709051 -0.12225354
-0.042202454 -0.13306086 0.19778465 0.067544185 -0.13410294 0.2547834 0.13665502 -0.030481482
-0.117019184 0.036511768 0.13423443 -0.059373606 -0.22697714 0.032923553 -0.07934823 0.08225153
-0.06859027 0.042615592 0.08059489 0.06392737 -0.13014676 0.22059822 -0.08509918 0.1421215
-0.000989682 0.12549661 -0.13474089 0.10545828 0.1209844 -0.08075769 -0.08212867 0.20018765
0.19488828 0.1015167 0.194825 0.06519815 0.22021657 0.063270964 0.2505005 0.13868906
00000000: 348e 273e 45a1 003e 22f6 75bc f668 833e
00000010: fe1c 203e 4494 413e 0018 8fbd 056b e73b
00000020: 3997 04be 4b1d f43d 7165 d0bc bcd8 1d3e
00000030: bd57 fd3d 9dcd 3a3c 46ca 00be 4321 543d
00000040: 1524 5cbd 71b7 4a3e 6453 603c ef8b bc3c
00000050: 2559 cfbc 988b 59be c8ea 383e 4193 ad3c
00000060: a794 c03d d9f0 b3bd 32ea 013e 6afe d83d
00000070: 66a9 02be 9068 753e dd67 373e 05a2 6b3d
00000080: a4b8 01be a6bd 033d 94f9 6c3e d348 043e
00000090: b0cb 72bd 41cc e03d 394b 503d 228f f1bd
000000a0: 81d1 d63d 3b91 b3bd 6f72 603d c8c1 7d3d
000000b0: 4dca 473d c5e8 1c3e d179 ae3d adf4 9fbd
000000c0: 9bdb 273e 5375 85bd 2aca fdbb 6f20 393d
000000d0: 4f70 abbd 9210 e5bd c8d9 04be b5f1 cc3d
000000e0: 58be 4c3e 7245 3b3e a4ae 6c3d 1849 4f3e
000000f0: 453e 7a3e a2d0 413e 77e1 fb3d c728 133e
00000100: 8bb7 403e 0b3d 383e d334 2dbe aec3 0e3e
00000110: 185f 8ebd 9cdb ce3d 7209 ee3d a75b 13be
00000120: 0b5b 93bd d07f f6bd 8320 b93d 0a2b 5d3c
00000130: 0131 03bd cd80 c43c 4ffc b2be ba48 f33d
00000140: 9330 d23d acc4 303d 3543 dcbd efcd ebbd
00000150: 0a6b 373d c898 b7bd 488f 1f3e 50dc 153e
00000160: 2fff 623e 17b0 afbd 6032 3fbd b504 8d3d
00000170: 799f 85bd 8444 5abd db0a 36bd 2564 e63d
00000180: 0e36 143e 6198 1b3e 702b 3a3d 3da2 1b3e
00000190: 33a1 ffbd 186a 293e fb9e 1a3e a32a b93c
000001a0: 2d97 393e c9e4 203e f0ed 633d bf64 92bc
000001b0: da7b 733d 5efb 143e d12b 09bc f481 0a3e
000001c0: c59e edbd 0aa8 1e3e ace5 04be 64ec 2f3e
000001d0: 8c40 6e3c 3059 b33d 16d3 e8bb d13f 4e3e
000001e0: 4397 483d fa71 153e 2ef0 0f3d 8d53 da3d
000001f0: 8b9e 413d 7a75 2cbd 4fbc 1fbd 8156 e13d
00000200: e2ea cd3d 72e1 5f3d 2e38 babd 4220 b43d
00000210: 6040 bc3b 577d 8c3c 7fc2 e5bd d091 cabb
00000220: 84a5 cd3d 4015 353b 672d 353c b87d a7bc
00000230: ca91 ddbd 7539 1f3c ceb1 923d 208d f9bc
00000240: 0285 c23c 8203 493d c228 c0bd 3ccd 70bd
00000250: 7028 c1bc f2f2 0dbd 856d 81bd 40eb 3c3b
00000260: 3087 103c ecd9 9bbd da19 c53d b5d1 debd
00000270: b00b f9bd 80c7 433b 74e9 3fbd 9ea7 f9bd
00000280: aeaa 8bbd e508 133d e286 f5bd 981a 83bc
00000290: c38f 073d 80b4 103b 82bc eabd e06b ddbd
000002a0: e5ea 963d e84c a43c 109f e93c 6429 bf3c
000002b0: 20b9 09bc f707 f4bd 60cd af3c f460 2b3d
000002c0: f2fa f2bd 04d2 483d 00cf a23b c9e4 00bd
000002d0: feff 04bd f2f9 f53d b8c8 fbbd 4484 6bbd
000002e0: 78a7 f0bd fedd 56bd 23cb cc3b bc8e e7bd
000002f0: 11ec e53d 20bf 4e3d 64bd 383d 3ac1 28bd
00000300: aed1 3f3e d1d6 033e ae08 56be ce0b 403e
00000310: 4421 f53d f86e 143e effb 9c3d be67 1c3c
00000320: 6e4e f0bd 7adc 6d3d 79db 7bbd 48e1 babc
00000330: c73b 64bc 9dda db3d 54ce 1fbd 8cc5 2abc
00000340: ad57 2ebd 0953 f93d 4099 5a3e 67a4 23be
00000350: 805c c13d a932 6bbd 3757 353e 1060 fabd
00000360: 7bdc 2cbd 1b41 08be 0f88 4a3e 9b54 8a3d
00000370: 4852 09be f872 823e 4bef 0b3e 4db4 f9bc
00000380: c1a7 efbd 5d8d 153d c074 093e bd31 73bd
00000390: b26c 68be d9da 063d 5381 a2bd 7d73 a83d
000003a0: 0e79 8cbd b08d 2e3d ef0e a53d 5aec 823d
000003b0: 3145 05be 80e4 613e 7b48 aebd 4c88 113e
000003c0: 38b8 81ba 2f82 003e 84f9 09be 83fa d73d
000003d0: abc6 f73d 4a64 a5bd 1333 a8bd fefd 4c3e
000003e0: cb90 473e fde7 cf3d 3480 473e 9c86 853d
000003f0: 7480 613e 3594 813d 9a41 803e 8104 0e3e

encoder_lin.4.bias f4 [32]
0.02780438 -0.0047257557 -0.041249517 0.020362118 0.03877513 -0.001724124 -0.039402228 0.18135165
-0.23342395 0.11102769 0.19919124 -0.08568089 -0.048188914 0.2434479 0.056959633 -0.098514736
0.1476953 -0.03392765 0.13656658 -0.122975595 0.33238336 0.12046427 -0.09330649 -0.0031254468
-0.09796625 0.059165962 0.24742919 0.3562722 -0.13346453 0.117691524 -0.015812539 0.25519538
00000000: 03c6 e33c 83da 9abb 41f5 28bd 75ce a63c
00000010: acd2 1e3d 00fc e1ba 3b64 21bd 3fb4 393e
00000020: b006 6fbe 7c62 e33d caf8 4b3e 7679 afbd
00000030: bd61 45bd 684a 793e 814e 693d 18c2 c9bd
00000040: 703d 173e b8f7 0abd 1cd8 0b3e a1da fbbd
00000050: 272e aa3e f9b5 f63d 7917 bfbd 4cd4 4cbb
00000060: 87a2 c8bd 0258 723d 145e 7d3e 4f69 b63e
00000070: edaa 08be 4108 f13d 4c89 81bc f8a8 823e
